model/StuntingClassificationModel.tflite (tflite, 3792 bytes, 6 tensors)

arith.constant f4 [4, 8]
0	0xbef7badc	-0.4838475
1	0xbe8e0f4c	-0.27746046
2	0x3fac5238	1.3462591
3	0xc0331e44	-2.7987223
4	0xc0ebf504	-7.373659
5	0x3c8578c0	0.01629293
6	0x3e7dfdbc	0.24803823
7	0xc001d3da	-2.0285554
8	0xba36a800	-0.0006967783
9	0x3da4d2d0	0.08048022
10	0x3f33056d	0.69930154
11	0xbf62c835	-0.8858674
12	0xc0516061	-3.2715075
13	0x3e604142	0.21899894
14	0x3f191d1b	0.59810036
15	0xbf292b18	-0.6608138
16	0xbe7324aa	-0.23744455
17	0x3ebd6284	0.36989224
18	0xbed1f558	-0.41007495
19	0x3f1c9965	0.6117156
20	0x3f53be61	0.8271237
21	0x3f102777	0.5631022
22	0x3e9f90da	0.311652
23	0x3edfc866	0.4370758
24	0x3eecffc6	0.4628889
25	0x3e4f2f8c	0.20232981
26	0xc02afdd4	-2.6717424
27	0x3fd2234e	1.6417024
28	0x405971f6	3.3975806
29	0x3f90ae7e	1.1303251
30	0xbf04ced8	-0.5187812
31	0x3f5aabc0	0.8541832

arith.constant1 f4 [8, 32]
0	0xbe0d9e01	-0.13829805
1	0x3e66dd20	0.2254529
2	0xbdfee518	-0.1244604
3	0xbebc6f0d	-0.36803475
4	0x3e54a324	0.20765358
5	0xbe7016a0	-0.23446131
6	0x3e755080	0.2395649
7	0x3caefcb0	0.021360725
8	0x3e6dd7e0	0.23226881
9	0x3de115c4	0.109904796
10	0xbead7eb2	-0.33885723
11	0xbe2074ca	-0.15669551
12	0x3e8c9000	0.27453613
13	0x3ec21274	0.37904704
14	0xbe62cb9b	-0.22147982
15	0xbeaa28e0	-0.3323431
16	0x3e839100	0.25696564
17	0xbd9011c0	-0.070346355
18	0xbe6ca4e4	-0.23109776
19	0x3ca46220	0.02006632
20	0x3eb33ae2	0.35005862
21	0xbe1b3ea5	-0.15160616
22	0xbd82fc24	-0.06395748
23	0xbe98f7cc	-0.29876554
24	0xbebc17c9	-0.36736897
25	0x3caf4ab0	0.021397918
26	0x3ea204d2	0.31644303
27	0x3e10eed0	0.141536
28	0x3eb6d3e2	0.3570853
29	0xbda8d95c	-0.08244583
30	0x3d0922a8	0.033480316
31	0x3c889a50	0.016675144
32	0x3cc67df0	0.024229974
33	0x3eaabe3a	0.33348256
34	0xbea5b7a4	-0.3236667
35	0xbe924b78	-0.28573203
36	0x3d03d120	0.03218186
37	0xbd17ee93	-0.037092756
38	0x3e4403a0	0.19142008
39	0x3ea06d37	0.31333324
40	0x3e6516fa	0.22372046
41	0x3cdd8586	0.027041208
42	0xbe4be935	-0.1991318
43	0x3ddb7b52	0.10716881
44	0xbeb77113	-0.35828456
45	0x3e93be90	0.28856325
46	0xbed99b82	-0.42501456
47	0xbeb8dab5	-0.3610436
48	0xbe7e5f85	-0.24841125
49	0xbe2d8805	-0.16946419
50	0xbea9fa5c	-0.33198822
51	0x3ec3f1e6	0.3827049
52	0x3e510cb9	0.2041501
53	0xbe20eb92	-0.15714863
54	0x3e95ec28	0.29281735
55	0x3e411ba0	0.18858194
56	0xbe9f49df	-0.31111047
57	0x3e911f56	0.2834422
58	0x3e0d476c	0.13796777
59	0xbe3c77bd	-0.18405052
60	0xbe174960	-0.14774084
61	0x3c8f6960	0.017506301
62	0xbd99868c	-0.07496366
63	0xbe8f51ff	-0.27992246
64	0x3ec2859a	0.37992555
65	0x3e51cec8	0.20489037
66	0x3dcfd59e	0.10148166
67	0x3fa0a49a	1.2550232
68	0xbe552bef	-0.2081754
69	0x3edeb898	0.4350021
70	0x3e1f50c9	0.15558161
71	0x3f017aee	0.505782
72	0x3f42e25b	0.7612664
73	0xbf136e13	-0.57589835
74	0x3e825222	0.25453287
75	0x3d310717	0.043219652
76	0x3e07b571	0.13252808
77	0xbd90d508	-0.070718825
78	0xbea0c079	-0.31396845
79	0xbec098c3	-0.37616548
80	0x3ceec0b0	0.029144615
81	0xbf2aef71	-0.6677161
82	0x3eae14f8	0.34000373
83	0xbe8fdbe2	-0.28097445
84	0xbf0cc7fd	-0.5499266
85	0x3c53c2e0	0.01292488
86	0x3f36d175	0.71413356
87	0x3e4c3a60	0.19944143
88	0x3f21228d	0.62943345
89	0xbea7751e	-0.3270654
90	0x3c678200	0.0141301155
91	0x3e7fd379	0.24983014
92	0x3e957686	0.2919199
93	0x3e3c5448	0.18391526
94	0x3ea85565	0.3287765
95	0xbebaf08e	-0.36511654
96	0xbe062420	-0.13099718
97	0x3d5ab4a0	0.053394914
98	0xbacf3e40	-0.0015811399
99	0xbf08e24e	-0.53470314
100	0x3ea9e088	0.33179116
101	0xbd696581	-0.056981567
102	0x3eebdfa3	0.4606906
103	0x3e031567	0.12801133
104	0xbf1403a3	-0.5781805
105	0x3f0c98ed	0.54920846
106	0xbe7912ab	-0.24323528
107	0x3f393ab8	0.7235522
108	0x3dccc1b7	0.09997886
109	0x3e844dd2	0.25840622
110	0x3f156332	0.58354485
111	0x3e9206d7	0.28520843
112	0xbe06210c	-0.13098544
113	0x3f0bcec4	0.54612374
114	0x3e691f88	0.22765934
115	0xbd9715b0	-0.073771834
116	0x3e066426	0.13124141
117	0xbdec699c	-0.11543581
118	0xbf439ae3	-0.76408213
119	0x3e8203ec	0.25393617
120	0x3d76fbd5	0.06029876
121	0x3f061535	0.5237611
122	0x3d9ba5bc	0.07599971
123	0xbe392061	-0.18078758
124	0x3e9be882	0.30450827
125	0x3e2548b4	0.16141015
126	0x3e8122bc	0.25221813
127	0x3e09424c	0.13404197
128	0x3d359d50	0.044339478
129	0xbcf83f00	-0.030303478
130	0x3e99c429	0.3003247
131	0xbf18cbf8	-0.5968623
132	0xbeab7fd6	-0.3349597
133	0x3cce8933	0.025211906
134	0x3f0c4794	0.5479672
135	0xbeb98106	-0.3623125
136	0xbeb71019	-0.3575447
137	0x3f4cd60c	0.8001411
138	0xbdf3ad78	-0.11898321
139	0x3eecc066	0.46240538
140	0xbd8fd5c0	-0.070231915
141	0x3c3e3a80	0.011610627
142	0x3eada4de	0.33914846
143	0x3e975aec	0.29561555
144	0xbe545a9a	-0.20737687
145	0x3ed0713e	0.40711397
146	0x3ebbdfec	0.36694276
147	0x3de274e4	0.11057451
148	0x3f42dfef	0.76122946
149	0x3ebaf18c	0.3651241
150	0xbf2fbb89	-0.6864553
151	0x3e957848	0.2919333
152	0xbec03a4b	-0.37544474
153	0x3f2058a5	0.6263526
154	0x3dc6f7fc	0.09715268
155	0x3d4665f9	0.048437092
156	0x3e0b5ab4	0.13608819
157	0x3ec24478	0.37942863
158	0x3ed61f6e	0.41820854
159	0xbe8a67aa	-0.27032214
160	0x3de3644c	0.111031145
161	0x3e75636c	0.23963708
162	0xbf6a9ef7	-0.9164881
163	0x3e54a047	0.20764266
164	0xbdabf1a0	-0.08395696
165	0x3eaf3443	0.3421956
166	0x3f008dc2	0.50216305
167	0x3e9fd700	0.3121872
168	0x3de6fc6c	0.112786144
169	0x3e96072b	0.29302344
170	0xbe9b8984	-0.30378354
171	0x3ec75017	0.3892829
172	0x3eb8106e	0.35950035
173	0xbea7ed7a	-0.32798368
174	0x3f0ada12	0.54239
175	0xbee5723c	-0.44813716
176	0xbb9e2200	-0.0048258305
177	0x3ecc82b8	0.3994348
178	0xbe99f058	-0.3006618
179	0x3e5007ac	0.20315427
180	0xbe87a679	-0.26494196
181	0xbe1fc60c	-0.15602893
182	0xbed0309b	-0.40662083
183	0xbe94209c	-0.2893113
184	0x3dcbeb5f	0.09957003
185	0x3e4871ff	0.19574736
186	0x3e36697c	0.17813677
187	0xbe0d0d7b	-0.13774674
188	0x3e6eae4c	0.23308676
189	0x3ebdbf78	0.37060142
190	0xbf8776c5	-1.058312
191	0xbe9f3c6f	-0.31100795
192	0x3def9c90	0.11699784
193	0xbe33333f	-0.17500018
194	0x3ea7c134	0.3276459
195	0xbea43f12	-0.3207937
196	0x3e9c8220	0.30568027
197	0x3e327418	0.17427099
198	0x3eaaa9fe	0.3333282
199	0x3e9a8656	0.30180615
200	0xbda24860	-0.07923961
201	0xbe8004c3	-0.25003633
202	0x3e1a9a44	0.1509791
203	0xbe8f6c17	-0.28012154
204	0xbeba5337	-0.36391613
205	0xbe25d631	-0.16194989
206	0xbde172e8	-0.11008245
207	0xbd4dc410	-0.050235808
208	0x3e349120	0.17633486
209	0xbe3bcbed	-0.1833951
210	0xbe740bdf	-0.23832653
211	0xbe4a00e6	-0.19726905
212	0x3da964bc	0.08271167
213	0x3e347d9c	0.17626041
214	0x3da46904	0.08027843
215	0x3ebc5004	0.36779797
216	0xbe56d517	-0.20979725
217	0xbe57f78a	-0.21090522
218	0x3da990d4	0.08279577
219	0xbd8717d0	-0.06596339
220	0xbe3c9d9f	-0.18419503
221	0x3daf189c	0.08549616
222	0xbe0b7e00	-0.13622284
223	0xbeb9e558	-0.36307788
224	0xbe998570	-0.29984617
225	0x3e8f8d62	0.28037554
226	0x3d0eb304	0.03483869
227	0xbf5a3f57	-0.852529
228	0xbe9f2fb4	-0.31091082
229	0xbe8da7db	-0.27667126
230	0x3ec70ebb	0.38878426
231	0xbf08c785	-0.5342944
232	0xbe329822	-0.17440847
233	0x3f25227c	0.64505744
234	0xbc4da2c0	-0.01255101
235	0xbe055bd1	-0.13023306
236	0x3eeb32bc	0.45937145
237	0x3e07cff8	0.13262928
238	0x3f1ff76b	0.62486905
239	0xbf1fdd35	-0.6244691
240	0xbc62fa00	-0.01385355
241	0x3e252735	0.16128238
242	0x3ea2eb8a	0.31820327
243	0x3e9a81aa	0.3017705
244	0x3f1ee436	0.6206697
245	0x3cc775a0	0.02434808
246	0xbeb653bb	-0.35610756
247	0xbebe60f2	-0.37183338
248	0x3e5b8649	0.21437944
249	0x3f8b12c0	1.0865097
250	0x3c994cf0	0.018713444
251	0x3ea0fae3	0.3144141
252	0x3e034bc8	0.12821877
253	0xbe5d576b	-0.21615379
254	0x3eb23bb8	0.34811187
255	0x3e4fcbb8	0.20292556

arith.constant2 f4 [4]
0	0x404ff127	3.2490938
1	0x3fa7ff30	1.3124752
2	0xbf9f0411	-1.2423116
3	0xc0873b56	-4.225993

sequential_1/dense_1_2/Add/ReadVariableOp f4 [8]
0	0x00000000	0.0
1	0xbd6594e1	-0.056050185
2	0x40978a11	4.735604
3	0xc0886eaf	-4.263511
4	0xc074923b	-3.8214252
5	0xc0158c63	-2.3366935
6	0x00000000	0.0
7	0xc097e8c1	-4.7471623

sequential_1/dense_1/Add/ReadVariableOp f4 [32]
0	0x00000000	0.0
1	0x00000000	0.0
2	0xc04d1339	-3.2042983
3	0x40a44e9d	5.1345963
4	0x00000000	0.0
5	0x3f29f221	0.66385084
6	0xc0a0aa81	-5.0208135
7	0x3efdb8ef	0.49555156
8	0x409d2eb5	4.9119515
9	0xc0a5b0a7	-5.177814
10	0x00000000	0.0
11	0xc03d397a	-2.956633
12	0x3f72d32e	0.94853485
13	0x00000000	0.0
14	0xc08cf028	-4.404316
15	0x3f8fc103	1.1230778
16	0x00000000	0.0
17	0xc0922ac6	-4.5677214
18	0x00000000	0.0
19	0x00000000	0.0
20	0xc0a6b86d	-5.210013
21	0x00000000	0.0
22	0x4096c520	4.711563
23	0x00000000	0.0
24	0x408442b6	4.1331434
25	0xc0a59543	-5.1744704
26	0x00000000	0.0
27	0x403be2b6	2.9357123
28	0x00000000	0.0
29	0x00000000	0.0
30	0xc07b3f5a	-3.9257417
31	0x00000000	0.0

sequential_1/dense_1/MatMul f4 [32, 3]
0	0xbebfda4b	-0.37471232
1	0xbe6ce479	-0.2313403
2	0xbebb30e0	-0.36560726
3	0xbe78494d	-0.24246712
4	0x3dbb9da4	0.09160927
5	0xbe3941da	-0.18091527
6	0xbee18a91	-0.4405103
7	0x3fc9f552	1.5777991
8	0x3e67fb0e	0.22654364
9	0x3eea3257	0.4574153
10	0xbcd64dfe	-0.026160236
11	0xbdb1cf32	-0.086820975
12	0x3e633b86	0.22190675
13	0x3e45aa9e	0.19303367
14	0xbec3eb12	-0.38265282
15	0x3e890398	0.26760554
16	0x3e8a52ad	0.27016202
17	0xbe434780	-0.19070244
18	0xbd470197	-0.0485855
19	0x3f018291	0.50589854
20	0x3dbf9dc6	0.09356265
21	0x3ee64de1	0.44981292
22	0xbe656574	-0.22401983
23	0xbe9a7f3a	-0.3017519
24	0x3eac1811	0.3361211
25	0xbe8499e8	-0.2589867
26	0xbde4bf0d	-0.111692525
27	0x3eeea53a	0.46610433
28	0x3e96628a	0.29372054
29	0x3d78d5a8	0.060750633
30	0xbe8595a5	-0.26090732
31	0xbe4b7824	-0.19870049
32	0xbe544bc3	-0.20732026
33	0x3f01400d	0.5048836
34	0xbf3ad913	-0.7298748
35	0xbdb74123	-0.08947971
36	0xbe500e9f	-0.20318078
37	0x408a369f	4.3191676
38	0x3d27b2f5	0.04094215
39	0x3dd1f5cc	0.1025196
40	0x3e2bfcfa	0.16795722
41	0xbe20ba88	-0.15696156
42	0xbe04e92e	-0.12979576
43	0xbecaf5f8	-0.39640784
44	0x3e058410	0.13038659
45	0xbfb38e8e	-1.4027879
46	0x3f585367	0.8450226
47	0x3e5cbd64	0.21556622
48	0xbe28f5ea	-0.16500059
49	0xbe4b1d7e	-0.19835469
50	0xbdc9444c	-0.0982748
51	0x3ee3fb44	0.44527638
52	0xbe015862	-0.12631372
53	0x3ced0ebe	0.028937694
54	0xbe090fd0	-0.13384938
55	0xbe9925af	-0.29911563
56	0xbcb385c0	-0.021914363
57	0x3e6b8c6e	0.23002788
58	0xbea0c8d4	-0.3140322
59	0xbe3f3761	-0.18673469
60	0x3e827e54	0.25487006
61	0x3ee2bd8c	0.44285238
62	0x3d7c625e	0.061617248
63	0x3ecb67d3	0.3972765
64	0xbe95bbe1	-0.29244903
65	0xbe87d2ac	-0.26527917
66	0x3ef04b96	0.46932667
67	0x3c7bcbc7	0.0153684085
68	0xbda8f94e	-0.08250676
69	0xbebad057	-0.36487076
70	0xbeca7254	-0.3954035
71	0xbe876643	-0.26445207
72	0x3e626176	0.22107491
73	0x3e65670c	0.2240259
74	0x3de22176	0.110415384
75	0xbe3be8b3	-0.18350486
76	0xbdf99428	-0.12186462
77	0x3e30ad56	0.17253622
78	0xbe9ad170	-0.30237913
79	0x3dd7de64	0.105404645
80	0xbeab079a	-0.33404237
81	0x3d9bc796	0.07606427
82	0x3fbd100f	1.4770526
83	0xbde4794a	-0.111559466
84	0x3cd891c0	0.026436687
85	0x3e9c5b27	0.30538294
86	0xbe213cf4	-0.15745908
87	0x3e8c14c7	0.27359602
88	0x3ebbbd2f	0.36667773
89	0xbeb10e9c	-0.3458146
90	0xbe9dd3b4	-0.3082558
91	0x3f8ea11b	1.1142915
92	0x3e70560f	0.23470329
93	0xbe971a95	-0.29512468
94	0xbead248e	-0.33816952
95	0xbe2e9bbd	-0.17051597
